models/best_classification_model_fold_0.pt (torch, 262976 bytes, 38 tensors)

feature_gates f4 [5]
000000 8b 55 70 b9 63 69 a8 b8 13 68 23 3c ce 29 5e bb
       -0.00022920051 -8.030494e-05 0.009973544 -0.003389943
000010 e6 d5 b4 b8
       -8.6229105e-05

in_lin.weight f4 [8, 5]
000000 00 72 ad 3e 11 c4 c9 3e 3e 50 03 be a7 86 c8 3e
       0.33876038 0.394074 -0.12823579 0.39165232
000010 4c f3 9a bd 32 62 a5 3d 0f 8c 6f be a0 5c 8f 3e
       -0.075659364 0.0807537 -0.23393272 0.28000355
000020 da 92 c8 3e 27 0e aa be d4 86 ce 3e 32 fc d0 3d
       0.3917454 -0.33213922 0.4033724 0.102043524
000030 0a ea a5 3e 0d 04 70 3d 0a c6 69 3e d8 82 89 bd
       0.3240512 0.058597613 0.22829452 -0.067144096
000040 6d 1b af 3e ee 81 6a 3d 2f d1 5c be ae 0a e6 3d
       0.34200612 0.057252817 -0.21564172 0.11232506
000050 62 ef 58 be 6c aa 6f bd b7 15 40 be b8 c9 94 3e
       -0.21185067 -0.058512136 -0.18758284 0.2906015
000060 d3 bd b4 be 4f 1d 53 be 39 4f 01 be 18 ac 89 be
       -0.35301074 -0.20616649 -0.12627877 -0.2688911
000070 f3 e2 2c 3d f5 25 e2 be 85 9e d3 3e 16 08 c5 be
       0.042208623 -0.44169584 0.41331878 -0.38482732
000080 d1 b1 b8 3e e1 53 9d 3d 21 f3 1a be 5e 30 88 3e
       0.36073163 0.07682014 -0.15131809 0.265994
000090 e5 93 71 3d 8f af bf 3e 34 a0 99 3d d7 4b 20 be
       0.058978934 0.37438628 0.075012594 -0.1565393

in_lin.bias f4 [8]
000000 14 b3 fd 3d 52 b9 f7 bd 63 ea 49 3e 66 84 c9 3e
       0.12387672 -0.12095894 0.19718318 0.39358824
000010 02 5f 81 3e b3 32 48 be 6a a2 86 3e 3f 46 a3 3d
       0.25267798 -0.1955059 0.26295787 0.07972383

conv1.sender_node_lin.weight f4 [64, 8]
000000 e9 bb 36 3e c1 c2 63 be e7 ea b3 be f6 89 0d be
       0.1784512 -0.22242261 -0.35140154 -0.13822159
000010 66 58 91 be c0 87 94 3e aa 76 cc 3d 08 a9 13 3e
       -0.28387755 0.2900982 0.09983571 0.14419949
000020 14 e0 dd 3d 4b 85 62 bc 1e ac 8b 3e 03 d0 80 be
       0.10833755 -0.013825725 0.27279752 -0.251587
000030 00 fe 73 3c 1d 1a 77 be 3b fd d5 3d 0b 5d 01 be
       0.014892101 -0.24131055 0.104486905 -0.1263315
000040 76 67 e2 3d 95 a4 96 bd 80 15 97 3e 67 7e 53 be
       0.1105489 -0.0735561 0.2950859 -0.20653687
000050 42 76 5d be a8 ed 57 be de 93 a3 3e b2 87 f4 3d
       -0.21627143 -0.21086752 0.3194875 0.11939944
000060 58 18 af 3e 7a 4b 96 be 42 cd b2 be 43 ef 8b be
       0.3419826 -0.2935446 -0.34922224 -0.2733098
000070 f6 4f 78 be 17 a3 12 3e 55 a6 02 3e 48 de 96 3e
       -0.24249253 0.14320026 0.12758763 0.29466462
000080 de 80 3a be 48 10 7c be 13 3a 40 3e 9c 55 13 be
       -0.18213221 -0.24615586 0.18772154 -0.14388126
000090 38 59 4f 3e 1e d2 ab bd 4a d7 4e 3e f2 f3 8c be
       0.20248878 -0.08389686 0.20199314 -0.27529866
0000a0 53 ff 3a be 4d 41 c9 3d 0f 46 90 3d f4 b1 b8 bd
       -0.18261461 0.09826908 0.070446126 -0.09018317
0000b0 a4 d7 4f 3e 00 1d 76 3e cc c3 85 be c0 9a 46 be
       0.20297104 0.240345 -0.26125944 -0.1939497
0000c0 81 95 a5 3e ee d8 f2 bd bf fe 00 be be 1d ae be
       0.32340625 -0.11857782 -0.12597178 -0.34007066
0000d0 d2 9c 48 be ba df b4 3d 71 6b 42 bd 97 ad 83 be
       -0.19591072 0.08831735 -0.047465745 -0.25718376
0000e0 43 4d 43 3c 38 c2 77 be fb ae 97 be 1b cd 4a be
       0.011920276 -0.24195182 -0.29625687 -0.19804804
0000f0 c1 bd a2 be 16 85 66 be 4a ea b6 3e 59 9e 8f 3d
       -0.31785396 -0.22511706 0.35725623 0.07012624
000100 8e 97 dd 3d 6e 2b a6 be e5 11 6e be 8a d0 f4 bd
       0.108199224 -0.3245501 -0.23249014 -0.11953838
000110 31 03 88 3d 97 47 9f be d5 84 1b be 93 1b 58 be
       0.06641234 -0.31109306 -0.1518739 -0.21104269
000120 91 55 ab ba d4 84 11 be 45 c6 dd bc ac 69 74 be
       -0.0013071765 -0.14210826 -0.027072081 -0.23868436
000130 96 09 83 be d8 35 53 be 38 28 ff bd 38 d8 90 be
       -0.2559325 -0.20626009 -0.12458843 -0.28289962
000140 ca 0b 99 3e 71 31 92 bd ca cf 9c 3e 74 ae e7 3d
       0.29891807 -0.071383364 0.3062728 0.11312571
000150 f1 5e 9e be 21 8a 7a 3e 52 ea c3 bd 4e 40 09 be
       -0.3093181 0.24466754 -0.095661774 -0.13403437
000160 b0 8e 96 be a5 b5 b6 be b0 3a ce 3d 3e 94 8c bd
       -0.29405737 -0.3568546 0.100697875 -0.068642125
000170 f1 33 09 3e 86 8d 94 be 7f a8 85 3e 82 8b 85 be
       0.1339872 -0.29014224 0.26105115 -0.26083
000180 40 be 80 bd 28 97 87 3d 80 62 38 3e e7 ab 91 3e
       -0.06286287 0.06620628 0.18006325 0.28451464
000190 2a 37 a0 3e f7 87 8f be 3a e3 af 3d a7 18 1f be
       0.31292087 -0.2803342 0.08588262 -0.15536748
0001a0 34 6a 1f bd 03 91 8a be a0 a4 a4 3e 10 b3 82 be
       -0.038919643 -0.2706376 0.3215685 -0.2552724
0001b0 33 e4 3a 3e 2c 77 fe 3d ad c9 e8 3d 2f 39 45 be
       0.18251114 0.12425074 0.113665916 -0.19260095
0001c0 a1 d7 a6 3e f3 ef 9f 3d 2a 90 4a 3d 64 74 9d be
       0.32586387 0.078094386 0.04945389 -0.30752861
0001d0 69 61 0f 3e cc 3f 59 bd 83 6d 22 be f6 2d 9d 3e
       0.14002003 -0.053039357 -0.15862088 0.30699128
0001e0 98 9a a2 3d d2 dc 46 be d4 a8 36 be bc f6 96 bc
       0.07939643 -0.19420174 -0.1783784 -0.018428199
0001f0 77 63 43 3e e4 05 b9 bd 81 fc 4d be 33 a4 f6 bd
       0.19080912 -0.09034327 -0.20115854 -0.12043037
000200 60 5c 87 be 16 70 06 3e 23 33 8c 3e b5 90 a8 be
       -0.26437664 0.13128695 0.27382764 -0.32922903
000210 7b 91 c4 3d e1 05 3b 3e 03 36 84 3d b8 fc ff bd
       0.09598061 0.18263961 0.064556144 -0.12499374
000220 9a e8 3d 3e ca 0d 44 3e 46 64 08 3e 2e dc 88 bd
       0.18545762 0.19145885 0.13319501 -0.06682621
000230 83 c0 a9 bd fa eb 1a 3d 4a 50 79 bd 7b 63 d4 bd
       -0.08288672 0.0378227 -0.060867585 -0.10370537
000240 0c 59 66 3e d7 94 9b 3e 3a 7c 13 bd ac 25 a6 bd
       0.22494906 0.30386993 -0.036007144 -0.08112654
000250 53 0a 43 3c 28 ee ac bc 15 66 ac 3d 22 63 c9 3d
       0.011904317 -0.021109655 0.08417908 0.09833361
000260 20 64 a1 be c2 e9 fa bd b7 7c 9b 3e 1c 9d 0d 3e
       -0.31521702 -0.12251617 0.30368587 0.13829464
000270 c5 0b 56 bc 78 45 5a be cc 18 57 be f8 ec 9e be
       -0.0130643295 -0.21315563 -0.21005553 -0.31040168
000280 7a c1 ed bd 09 1c f2 3d 0b 11 66 3e 0c fd 2d 3e
       -0.11609168 0.118217535 0.22467439 0.16991061
000290 cc f4 9e be 6f b6 59 be 84 94 69 bd 39 99 ae 3e
       -0.3104614 -0.21260999 -0.0570264 0.34101275
0002a0 9c 83 52 3d e4 e0 c5 bd 37 52 15 3e 0d 57 09 be
       0.051395044 -0.09662035 0.14582144 -0.13412113
0002b0 7a a4 74 be de 1e 84 3e be ae 25 be 99 a9 93 bd
       -0.23890868 0.258048 -0.1617994 -0.072100826
0002c0 1c b0 b6 be a7 14 66 3e e6 5f 86 3e d6 45 02 3e
       -0.35681236 0.22468816 0.2624504 0.12721953
0002d0 13 4e 83 be e7 a6 b2 be 4f 1d 96 be e1 b5 83 3e
       -0.25645503 -0.3489296 -0.29319236 0.257247
0002e0 7a 39 30 3e 5c 92 9c 3e 9a ef 3f 3e 66 63 b6 3d
       0.17209426 0.30580413 0.18743744 0.089056775
0002f0 ed 29 c7 3b c5 a9 89 be 7e a7 99 be 79 bd a7 be
       0.006077996 -0.26887336 -0.300106 -0.32761744
000300 f5 ca 0f 3e 6d 71 3b be 5e c8 9b bd 14 e3 51 be
       0.14042266 -0.18304987 -0.076065764 -0.2049678
000310 51 2d 9f bd bf cf 7e be a0 26 72 be 09 93 e4 3d
       -0.07772315 -0.24883936 -0.23647547 0.11160857
000320 fe c3 dd bd 53 4d 5a 3e c0 04 ef bd 79 43 85 be
       -0.10828398 0.2131856 -0.11670828 -0.2602804
000330 e4 82 7b bd 7b 7e 2f be 83 c5 e4 bd 8d 2c ae be
       -0.061404124 -0.17138092 -0.11170485 -0.34018365
000340 7f 2b 50 3e 09 67 77 be 72 cd 3b 3e 79 ea 28 3e
       0.20329092 -0.24160399 0.1834009 0.16495694
000350 87 95 81 3e 1f d9 8a be 8d 15 85 3e 66 6a 25 be
       0.25309393 -0.27118775 0.25993004 -0.16153869
000360 6a af 04 3e fe 2c ab 3e 61 bd 51 bd 55 e5 b9 bb
       0.1295754 0.33432764 -0.051205996 -0.0056730905
000370 74 aa 98 bd 2d 25 97 be 7d da 2c 3e 29 11 b4 be
       -0.07454386 -0.2952055 0.16880222 -0.35169342
000380 85 c5 5f 3e 53 72 88 3e dc e0 aa 3e 2c 2d a8 bd
       0.21852691 0.26649722 0.3337468 -0.08211741
000390 c9 f0 90 be 90 ca a2 3d f6 8c 47 3e 29 42 b4 be
       -0.28308704 0.07948792 0.19487366 -0.35206726
0003a0 0d 06 aa bd 09 48 57 be 72 d9 07 bd 84 39 34 be
       -0.08301935 -0.21023573 -0.033166356 -0.17600065
0003b0 2b 9e 0e be 60 dc e5 bd 7d e4 ac be 25 ae 93 3e
       -0.13927524 -0.11223674 -0.33768073 0.288438
0003c0 bf 30 98 3e 5d 50 5d bd f5 44 23 bd 81 3b 14 be
       0.2972469 -0.05403172 -0.039860684 -0.14475824
0003d0 60 21 a2 be 9c 27 b0 be ac 1c 07 3e 04 42 46 be
       -0.31666088 -0.3440522 0.13194531 -0.1936112
0003e0 9e 6d 62 be a5 fa bd bc 0e 29 e5 bd b8 97 e9 bd
       -0.22112128 -0.023190806 -0.11189471 -0.11405891
0003f0 21 0f e7 3a 2a 95 99 bd 8d 98 ed bd da 9d 27 be
       0.001762841 -0.07499154 -0.116013624 -0.1636881

conv1.sender_node_lin.bias f4 [64]
000000 ee 82 73 3e f2 39 a9 3e 67 b7 b1 3c a7 77 9b be
       0.23780414 0.3305202 0.021693898 -0.30364725
000010 df bf 80 be 72 28 67 be 4d 48 9e be 52 40 37 be
       -0.25146386 -0.22574022 -0.30914536 -0.1789563
000020 e2 30 a6 be e7 7c a9 be 1d 2f 59 be 38 d9 b1 be
       -0.3245917 -0.33103105 -0.21209379 -0.34736037
000030 80 64 63 be 45 4c 08 3e a1 35 98 3e 7e 87 d4 bd
       -0.22206306 0.13310345 0.29728416 -0.103774056
000040 d5 37 c9 bd 24 05 42 3e 9b 16 33 be 58 28 25 be
       -0.09825102 0.18947273 -0.17489092 -0.16128671
000050 af 83 61 3e b7 02 9f be 8c 71 12 3d b4 28 a2 3e
       0.2202289 -0.3105676 0.035752818 0.3167168
000060 27 3b 5f 3d f7 e0 be 3d a5 74 4e be 2b 0c 83 bb
       0.05449977 0.093202524 -0.20161684 -0.0039992533
000070 7c dc b2 3c d3 73 af 3d ba e9 0b 3e 7d ae 9f 3e
       0.02183365 0.085670136 0.13663378 0.31187811
000080 ab 77 8a be 2e 3a 59 3c 85 05 36 be ec 69 8b be
       -0.27044424 0.0132585 -0.17775543 -0.2722925
000090 67 7b cd bc 8a 01 9d be a8 4e 7d 3e 3f f9 30 3d
       -0.025083257 -0.30665237 0.24737036 0.04320645
0000a0 59 23 41 be 6b b8 39 3e e5 86 ae be f4 4e 0f be
       -0.1886114 0.18136756 -0.3408729 -0.13994962
0000b0 93 a5 8b bd 5d 73 99 be 41 e4 63 be e0 bf 85 bd
       -0.0681869 -0.29970828 -0.2225504 -0.06530738
0000c0 b1 b5 85 3e 2d 17 af 3e b6 fe 64 3e 74 6e 5c be
       0.26115182 0.3419737 0.2236279 -0.2152651
0000d0 3a 32 6c be aa 4c a0 3e 9f 76 06 3e db ab 17 3c
       -0.23066035 0.3130849 0.13131188 0.009257282
0000e0 b3 cb 55 3d f7 fc 90 be f2 a5 ed bd e4 d5 ab 3e
       0.052196216 -0.28317997 -0.11603917 0.33561623
0000f0 aa e7 ac bd 5e 5f 9d bc d0 89 96 be 81 61 45 be
       -0.08442624 -0.019210514 -0.29402018 -0.19275476

conv1.edge_lin.weight f4 [64, 1]
000000 69 58 8b bc 03 00 1f bf 26 94 f4 bd ec e2 ce 3e
       -0.01700993 -0.6210939 -0.119423196 0.40407503
000010 63 82 7a bf 89 69 99 3e 7b b1 28 bf 21 ce fa be
       -0.97855204 0.2996333 -0.65895814 -0.4898539
000020 0d 00 c3 3e 5a 52 4b 3f 8c 2d 8c be da b3 d1 be
       0.38085976 0.79422534 -0.273785 -0.40957528
000030 3e 84 67 bf 91 3b 04 bf 75 52 5f bf 9d 59 6b be
       -0.9043616 -0.5165339 -0.87235194 -0.22983404
000040 56 a4 4f 3e fd 30 70 bf 73 0e 60 3f 9a 73 20 3f
       0.20277533 -0.9382475 0.8752205 0.62676394
000050 db 06 7a bf 95 9c f2 be 4a 87 a6 3e 12 5b 4e be
       -0.9766671 -0.47385088 0.32525092 -0.20151928
000060 b2 0c e0 bd b3 94 e9 be 8f c7 4c 3f e8 2c 0e bf
       -0.109399214 -0.4562126 0.79992 -0.5553727
000070 fd 20 54 3f 28 b3 84 3d 8a f8 49 3e 5a e2 47 3f
       0.82862836 0.06479484 0.19723716 0.7807976
000080 74 bc 27 be 84 99 11 bf 46 b4 21 be ea 8e 50 3f
       -0.16380483 -0.5687487 -0.15791425 0.8146807
000090 c4 c8 3d bf 25 d4 66 3e 29 41 7a bf d9 f0 06 3f
       -0.7413447 0.22541864 -0.97755677 0.52711254
0000a0 63 e8 bb 3e a6 23 35 3d 27 80 da 3e 25 ee 86 b9
       0.36700734 0.04422345 0.42675897 -0.00025735903
0000b0 fc 95 0d 3f 95 2d 4a bf 70 d2 15 be 52 3c e4 3e
       0.55306983 -0.789758 -0.14631057 0.4457727
0000c0 b4 59 7e 3f bf a5 02 3f 4f 12 3b bf 3f e1 43 3f
       0.99355626 0.5103416 -0.7307481 0.76515573
0000d0 42 bd 64 be 51 59 57 be f4 a0 68 bf d5 3f 1d be
       -0.22337821 -0.21030165 -0.90870595 -0.15356381
0000e0 61 6c 35 3f ab ef 11 3e a6 9a 13 bf c9 45 9c 3e
       0.708685 0.14251582 -0.5765785 0.30521992
0000f0 d8 4b a3 be 18 22 6b 3f a7 6a 5d bf 8b 90 a0 be
       -0.31893802 0.918489 -0.86490864 -0.31360278

conv1.edge_lin.bias f4 [64]
000000 eb be 75 bf 24 5f c8 be 93 f6 a4 3e a5 3b 76 3f
       -0.9599444 -0.39135087 0.3221937 0.9618476
000010 28 a0 2c 3e 2f 2b 7b 3f cc 25 4d 3e 18 f9 12 3f
       0.1685797 0.9811277 0.2003395 0.57411337
000020 23 f8 4b 3f 8d 56 55 3f 28 bf 0e bf 91 55 6c 3f
       0.796755 0.8333519 -0.5576043 0.92318064
000030 c8 85 1a 3f 42 6a f0 be dc 2e f1 be 95 08 57 bf
       0.60360384 -0.46956068 -0.47106063 -0.8399747
000040 96 a9 7f 3e 00 59 50 bf 7a f4 d9 3e f0 16 a3 3e
       0.24967036 -0.81385803 0.42569333 0.31853437
000050 b0 5d 5e bf e7 0d 8c 3e d6 24 a7 bd 14 74 ed 3e
       -0.86861706 0.27354357 -0.08161323 0.46377623
000060 5b 32 12 3f c0 05 80 bf af ba 69 3f 8b 0e 58 3f
       0.57108086 -1.0001755 0.9130048 0.8439719
000070 1c 26 ca 3e d6 32 6a bf 64 90 b7 be 26 7b 95 be
       0.394822 -0.9148382 -0.3585235 -0.29195517
000080 c3 b5 80 be 9c 6c 11 3f 18 7b bb 3e 99 5e 4c 3f
       -0.25138673 0.5680635 0.3661735 0.79831845
000090 84 39 c0 be d8 7d ab 3e 82 c5 ba 3e cc 70 54 bf
       -0.3754388 0.3349445 0.36478812 -0.82984614
0000a0 32 bc 79 bf 9c e2 03 bf fa 07 2f 3f 57 f1 70 bf
       -0.9755279 -0.51517653 0.68371546 -0.94118255
0000b0 04 db 5d bf f5 07 0f 3f 48 60 0b 3f 73 0b 52 3f
       -0.86662316 0.55871516 0.5444379 0.8204872
0000c0 e2 b8 41 bf a9 b3 3a bf 42 d6 01 3f 2f 8f 5d 3f
       -0.75672734 -0.7293039 0.50717556 0.86546606
0000d0 5c 2a 18 3f 9f db 1f 3e b6 c6 a8 3e 6b e0 74 3f
       0.59439635 0.15611123 0.32964104 0.95654935
0000e0 59 01 25 bf 53 86 e6 be 6b 2d 35 3f 58 d3 30 bf
       -0.6445518 -0.45024356 0.7077243 -0.69072485
0000f0 3f 01 0c bf 4f 57 3d 3f bf 4f a5 3e 17 54 a7 3e
       -0.546894 0.7396135 0.32287404 0.32681343

conv1.message_mlp.0.weight f4 [64, 128]
000000 2e 6a 48 bd 92 97 ef 3a 27 3b ac 3d 83 cd 5d bd
       -0.048929386 0.0018279424 0.0840972 -0.05415107
000010 a6 8e 6b bb cf 14 20 3d 1e 38 88 bd ba 22 ab 3d
       -0.003594318 0.039082345 -0.066513285 0.08356233
000020 c8 98 46 bd 22 c2 cd bc e2 3c bb bc 26 06 7c bd
       -0.048485547 -0.025116984 -0.02285618 -0.0615293
000030 3c a3 aa bd a2 46 50 3d 78 a2 da 3c b0 2f b2 bd
       -0.08331916 0.05084861 0.0266888 -0.08700502
000040 15 75 42 bd 83 d8 b9 3d b4 78 1b 3d 8f f6 01 3d
       -0.04747494 0.090744995 0.03795691 0.031729277
000050 b7 9f 48 bd da 46 34 bd 66 a5 17 bc d1 61 85 bc
       -0.04898044 -0.04401288 -0.009255743 -0.016281994
000060 89 4e 88 bd f8 47 a0 3b ed e8 27 3c a1 26 a6 bb
       -0.066556044 0.004891392 0.010248405 -0.005070523
000070 b7 43 80 3c 1f 70 20 bd d2 9f cb 3c 55 79 f9 3c
       0.015657289 -0.039169427 0.024856482 0.030453363
000080 6e 4f 12 bd c1 ea a4 bd 94 e5 2d 3d fa 1a 94 3c
       -0.03572028 -0.08052588 0.04245527 0.01807927
000090 1e 15 44 bd 58 3d b5 3d 41 5c 10 bd 0c 56 66 3d
       -0.0478717 0.08849591 -0.03524423 0.056234404
0000a0 8f de 29 3d 43 de 8f bd b1 4c 61 3d f2 90 9f bd
       0.041472014 -0.07024815 0.05500478 -0.07791318
0000b0 2b a6 53 bd b4 af 79 bc d2 cd 7d bd 22 50 b7 3d
       -0.051672142 -0.015239645 -0.061963864 0.08950831
0000c0 dd a8 9f bc 8f fa 26 3d 4d 62 9e bd bc a5 68 3d
       -0.0194897 0.040766295 -0.07733593 0.05679868
0000d0 fe 19 c9 bc 03 87 8b bd 39 f9 5b 3c 1f dc 3d 3d
       -0.024548527 -0.06812861 0.0134261185 0.046352502
0000e0 4c 46 a6 3d 96 b4 69 bd 4f 2e 42 bd 73 b0 b1 3c
       0.08118877 -0.057056986 -0.047407445 0.021690583
0000f0 06 6c e2 3c 05 fd ff 3c 98 62 50 3d 84 c8 68 bc
       0.0276394 0.031248579 0.050875276 -0.014207963
000100 45 cd 3d 3d 14 da 84 3d a6 e1 a2 bc 03 b4 82 3d
       0.04633834 0.064869076 -0.019882988 0.06381991
000110 54 81 31 3d 5d 0b a2 3d e1 c1 4c bd 8c d3 2e bd
       0.043336228 0.079123236 -0.049989585 -0.042682216
000120 8f 59 ca bc 14 b5 a2 3b a6 d9 55 3d be e1 44 bd
       -0.024700908 0.004965434 0.05220952 -0.048066847
000130 70 58 37 3d c2 77 03 bd d5 a9 59 3d 65 2f b2 bb
       0.044762075 -0.03209663 0.05314048 -0.005437779
000140 01 71 9d bd 62 d9 48 bd 2d 8d 82 bd 28 7e 34 3d
       -0.076875694 -0.049035437 -0.063745834 0.044065624
000150 d4 70 74 bd 9b ea e2 bb 0d 96 9a 3c a8 84 3c bd
       -0.059677914 -0.00692494 0.018870378 -0.04602495
000160 f3 b9 2a 3d 40 8f b2 bd b8 72 80 bd e8 4c a1 bd
       0.04168124 -0.08718729 -0.06271881 -0.07875997
000170 99 30 d9 bc 52 0d 17 bd b3 23 33 3c 31 39 88 bc
       -0.026512431 -0.036877938 0.010933804 -0.016628833
000180 2b 63 27 3d 7c 8f a7 3d 29 2f 0c 3d 09 c9 0c bd
       0.04086606 0.08181664 0.034224663 -0.03437141
000190 bf f8 a9 bd 96 cc 05 3d c2 36 32 bd 19 71 32 3d
       -0.08299398 0.03266581 -0.043509252 0.04356489
0001a0 15 d1 64 3d 32 f9 eb 3c 6e 44 ab 3d 60 a6 a5 3d
       0.05586346 0.028805349 0.08362661 0.08088374
0001b0 be c9 8d 3c f0 c8 82 bd c2 22 b0 3d 86 97 28 bd
       0.017308112 -0.06385982 0.086003795 -0.04116013
0001c0 ed 63 2d bd b2 ea 94 3d 2a 58 8d 3d ce ff de 3c
       -0.042331625 0.07271327 0.069015816 0.027221587
0001d0 71 7e 10 3c f9 10 97 bd 0c b8 11 bc e3 91 c7 3d
       0.0088192085 -0.07376284 -0.008893978 0.097446226
0001e0 38 92 b2 3c 26 a8 32 3b 71 27 8e bc 2d 05 08 bd
       0.021798238 0.0027260869 -0.017352792 -0.03320806
0001f0 2e c2 54 3d ab db be 3b 5b ae 6c 3d 35 da 72 bc
       0.051942997 0.0058245263 0.057783466 -0.014822532
000200 43 09 50 3d 60 ec 0f 3d e4 aa 51 3c a8 0d 7a 3d
       0.050790083 0.035137534 0.012797091 0.06104818
000210 8a ea 72 3d c2 74 aa 3d 83 13 94 3d 02 66 98 bc
       0.059305705 0.08323051 0.07230284 -0.018603329
000220 9f 76 93 bd 0e a1 98 3c 9d be 84 b9 f9 b7 a3 bc
       -0.072003596 0.018631484 -0.0002531902 -0.019985186
000230 c0 fd 88 bc 18 c8 be 3b 7a a3 80 3d 33 a3 f6 3c
       -0.01672256 0.005822193 0.06281181 0.030107116
000240 ab 94 16 bd 7b a7 1d bd 81 33 c8 bc b9 57 03 bd
       -0.036762875 -0.0384898 -0.024438621 -0.03206608
000250 d6 ab 9d 3d e4 59 50 3d ee ac 94 3d a6 da 29 bb
       0.07698791 0.050866976 0.07259546 -0.0025917678
000260 38 12 b6 3c 62 05 00 3d ef 3a aa bd 4f 85 45 3b
       0.022225484 0.031255133 -0.08312022 0.0030139273
000270 b5 ec fd bb 06 87 40 bd dc f2 8c bd 26 82 a2 3d
       -0.007749165 -0.04700377 -0.06882259 0.0793498
000280 d2 c1 82 3d 73 23 11 3d de f6 b0 3d 6f 3f 09 bd
       0.063846245 0.035434198 0.08640836 -0.03350776
000290 b1 d1 68 bc 39 bd 09 3d 86 58 9c bc f5 b9 7c bc
       -0.014210151 0.033627722 -0.01908518 -0.015425195
0002a0 0b 4e 92 bd 53 53 b1 3c 7b 5c 59 bd 32 96 d5 3a
       -0.07143792 0.021646177 -0.053066712 0.0016295372
0002b0 f8 da b1 3d 36 aa e0 bc a4 85 dd bc bf 77 55 3d
       0.08684343 -0.027424913 -0.027041264 0.052116152
0002c0 6a ed 07 bd 8a e3 6a bc 3c ee a9 3d 8f 84 28 bd
       -0.0331854 -0.014336476 0.08297393 -0.041142043
0002d0 81 7a 80 bd 59 e2 48 bd 44 df c0 bc 29 e7 34 bd
       -0.06273366 -0.049043987 -0.023543961 -0.044165764
0002e0 16 95 48 bd 50 36 18 3d 45 ce bc 3c 0f 1a 02 bd
       -0.048970304 0.03716117 0.023047576 -0.031763133
0002f0 86 0c 90 bd 9a 37 dc bc 77 44 1c bd df 7d 04 bd
       -0.07033639 -0.026881982 -0.03815123 -0.032346603
000300 05 98 9f bd 11 5e 96 3c c3 b1 8d bd f5 e2 8c bd
       -0.07792667 0.018355401 -0.06918671 -0.06879226
000310 59 3a 96 bd f2 4e 16 3d 0b f5 5e bd 7f 68 1d bd
       -0.07335348 0.036696382 -0.05443291 -0.038429733
000320 a5 23 8e 3d fa 43 42 3d 47 04 4f 3d df bf b2 bd
       0.069403924 0.04742811 0.05054119 -0.08728003
000330 cb de 84 bd 23 f6 0a bd f0 08 94 3d 0b 92 18 3c
       -0.06487807 -0.03392614 0.07228267 0.009312163
000340 34 7e 86 bd b1 2b c6 b7 1a 07 8b bd 1f 7b 98 bc
       -0.0656704 -2.3623785e-05 -0.06788464 -0.018613396
000350 a4 c5 cb bc 1e c6 99 3d 29 07 ea 3c 00 9b 9a bc
       -0.024874516 0.07508491 0.028567867 -0.018872738
000360 e0 09 58 3a b1 bc d1 bc 95 1f 10 3d 9e b9 05 3d
       0.00082412176 -0.02560267 0.03518637 0.03264772
000370 0d ae c8 3c 27 f3 fb bc ab 01 a0 3d e3 3a 3c bc
       0.024497056 -0.030755593 0.07812818 -0.011488649
000380 c1 2a 0e bd 88 79 5b 3d 1a 55 8c 3d a9 38 b5 3d
       -0.034708742 0.053582698 0.06852169 0.08848698
000390 10 58 d0 3c 00 1b f4 bc 10 ab 32 3d dd 30 a0 3d
       0.025432616 -0.02979803 0.04362017 0.0782182
0003a0 28 fb a8 bd ec af db bb a8 b4 75 bd 5e 1e 98 3c
       -0.08251029 -0.006704321 -0.05998674 0.018569168
0003b0 ff 85 1f 3d f5 18 a2 bc 95 cf 78 bc c3 c2 23 3d
       0.038946148 -0.019787291 -0.01518621 0.03998066
0003c0 f9 a2 59 bc 80 70 93 bd 4b b9 8d 3d 1e 4f 34 bd
       -0.013283485 -0.07199192 0.069201075 -0.044020765
0003d0 8e f4 63 bc 6e d2 dd 3b 19 93 d7 bb 8c 9e bf bd
       -0.013913287 0.00676947 -0.0065788147 -0.09356412
0003e0 77 0b 2d 3d 60 4c 0d bd d0 f0 43 bd 17 77 c8 3c
       0.04224726 -0.034496665 -0.04783708 0.024470849
0003f0 82 eb 3d bd d1 d3 24 bd ae 61 fe bc 12 72 0f bd
       -0.046367176 -0.040241066 -0.031052437 -0.035020895

conv1.message_mlp.0.bias f4 [64]
000000 f3 22 df bc 74 33 17 3d f1 16 b0 3d 8d 94 54 3b
       -0.027238345 0.036914304 0.08598126 0.0032437176
000010 27 0e 1f bd 44 b2 92 bd ba eb 7f 3d 9b ad 45 bc
       -0.038831856 -0.07162908 0.062480666 -0.012065317
000020 2b 92 90 bd f9 5b 51 3d ce 6b 74 3c 23 1f 12 bd
       -0.07059129 0.051113103 0.014918281 -0.035674226
000030 56 2d b2 bd ec a8 35 3c 7c dd 02 bd b1 1d 7b bc
       -0.087000534 0.011087637 -0.031949505 -0.015326903
000040 f5 0c 03 bd 6d 7c 92 3d d5 1d 22 3d 7a 8c 90 3d
       -0.03199478 0.071526386 0.03957923 0.07058044
000050 15 7f 19 3d 5c d0 c4 3c ac 11 ad 3d ef a4 16 ba
       0.03747471 0.024025135 0.08450636 -0.0005746623
000060 ea 64 5d 3d b0 eb 02 3d 16 c9 ab bd 1e f3 75 3d
       0.054051317 0.03196305 -0.083879635 0.060046308
000070 c8 3b 1f bc 65 74 61 bd 53 aa 6a 3d b0 9b 92 bd
       -0.009718843 -0.055042643 0.05729134 -0.07158601
000080 ab bf 29 3d d2 8c 9e bd ff ad cf bc d7 d3 a9 bd
       0.041442554 -0.07741703 -0.025351522 -0.08292358
000090 39 ef 71 3d 43 8a a4 3c 92 00 a0 3d 53 f3 cf 3c
       0.05906603 0.02008546 0.07812609 0.02538458
0000a0 9f c3 42 bd a2 59 91 3c 29 21 6b 3d 14 4f 89 bd
       -0.04754984 0.017742936 0.05740467 -0.06704536
0000b0 11 de 85 bd aa 91 b2 bc bc 28 4e bd 7b 89 83 bc
       -0.065364964 -0.021797974 -0.050331816 -0.016056767
0000c0 1c 7f b7 3d 41 51 40 3d 5a a0 97 bd 26 33 fc bc
       0.08959791 0.04695249 -0.074036315 -0.030786108
0000d0 86 02 87 3d 0a 43 fc bb 8e 70 18 bd fa 47 3f 3c
       0.06592278 -0.0076984214 -0.037216716 0.011674875
0000e0 78 62 68 bc 26 99 ef 3c 5e 9e a9 ba 6a 31 65 3d
       -0.014183633 0.029247832 -0.0012940874 0.055955328
0000f0 a3 bf 4f 3d 71 f8 ed 3c bb 47 e0 3c ee ac 85 bc
       0.05071987 0.02904913 0.027377954 -0.01631781

conv1.update_x_lin.weight f4 [64, 8]
000000 f0 9e a9 be b5 5a 38 bd f8 ca 8a be c5 c1 8b be
       -0.33129072 -0.04500838 -0.27107978 -0.27296272
000010 a6 84 a1 be 36 f0 b4 bd 16 59 88 be 81 44 61 3d
       -0.31546515 -0.08834879 -0.26630467 0.05499697
000020 d5 a5 00 3e d0 5b 52 3e 1a f1 ba be 9c 59 96 3e
       0.1256326 0.20542836 -0.3651207 0.29365242
000030 e0 cc e5 3d 31 e5 92 3e 15 80 18 3e 38 34 2e 3d
       0.112207174 0.28690484 0.1489261 0.04253027
000040 93 98 81 bd 18 99 9b 3e 43 3c 67 be 77 8d 8e 3e
       -0.06327929 0.3039024 -0.22581582 0.27842304
000050 18 c7 a1 3e ba 7f 6c 3d 6d cb 16 be 92 e4 8f be
       0.3159721 0.057738997 -0.14726038 -0.28104073
000060 b1 35 9e bc de 69 9c 3e 06 e3 82 3c b3 48 b9 bd
       -0.019312711 0.3054952 0.015977394 -0.090470694
000070 6a 42 35 be 5f 6c d8 3c 84 21 48 3e 08 41 8d 3d
       -0.17701116 0.026418863 0.19544035 0.06897169
000080 a3 1b 89 3d 89 40 75 be e0 45 35 3e de 9d 26 3d
       0.066947244 -0.239504 0.17702436 0.040677898
000090 ad 89 af be 61 90 96 3e 8d ca 6b 3e 37 52 0e 3c
       -0.34284726 0.29407027 0.23026486 0.008686594
0000a0 81 63 99 bd 0f 90 a6 3e ec 44 b2 3e 33 a6 5a 3d
       -0.07489682 0.32531783 0.34818208 0.053381156
0000b0 eb a6 a7 3e 92 0c 19 3e 74 e4 2a 3e 2b 36 b4 bc
       0.32744536 0.14946201 0.1668871 -0.021998486
0000c0 4d 3f 1f bd 8d 7b 5a 3e 49 75 29 be 4a 28 84 be
       -0.038878728 0.21336193 -0.16548647 -0.25811988
0000d0 bd 0a 63 3e 96 c8 ad bd 92 cf 74 3e f1 7f 8d bd
       0.22172065 -0.08485524 0.23907307 -0.069091685
0000e0 52 03 5f be a3 80 64 3c 91 4a 3b bd da 2e 6b 3d
       -0.2177861 0.013946685 -0.04572541 0.057417728
0000f0 9b ea 88 be e6 42 99 be 2d 3b 82 3c 00 78 a2 3e
       -0.2674149 -0.29933852 0.015897358 0.31732178
000100 d6 1f 6c be 4e 14 39 be e1 81 d8 3c b1 03 87 3e
       -0.2305902 -0.18074152 0.026429119 0.26370004
000110 e8 90 89 3e e2 2f 97 bd 0e f0 d2 bc 4c 23 92 be
       0.26868367 -0.0738218 -0.025749233 -0.28542554
000120 4d 47 ab 3e dc d5 55 3e 43 75 a6 3d 85 fb b0 be
       0.33452836 0.20882362 0.08127835 -0.34566894
000130 ea 4a 47 3e 1f fc 4b be 76 34 c3 3b 73 c2 24 3e
       0.19462171 -0.19920395 0.0059571816 0.16089801
000140 ce 70 95 bc 8e 6c 27 be 1a fe 6d 3e 8e 2c 68 3e
       -0.018242266 -0.16350004 0.23241463 0.22673246
000150 56 fd c6 3c 7d 3f 62 be d2 87 41 be c9 65 a5 be
       0.024290722 -0.22094531 -0.18899468 -0.32304218
000160 0b c9 48 be 78 d0 a9 be ae a4 17 bd c3 7c 7c be
       -0.19607942 -0.33166862 -0.037022285 -0.24656968
000170 b3 c2 4f 3e 56 79 92 be 2d f4 7f be 2a c5 65 be
       0.20289116 -0.28608197 -0.2499549 -0.22438493
000180 dd 06 c8 bd d3 a9 0a 3e 13 b9 80 3e e9 13 bb 3e
       -0.09766934 0.13541345 0.251412 0.36538628
000190 5d 25 97 bd 70 fd a9 3d 2b 6f 91 3c 84 8c 42 3e
       -0.07380173 0.083002925 0.017753204 0.18998915
0001a0 30 10 1f 3e ac e1 52 3e 89 72 69 3e 95 b4 98 3e
       0.15533519 0.205939 0.22797598 0.29825273
0001b0 3f fd b3 3c 50 70 7d 3e 04 92 5a be 99 73 b6 bd
       0.021971343 0.24749875 -0.21344763 -0.08908767
0001c0 00 7b e9 bd 3c bf e4 bd e9 0c 0a 3c fc c0 aa be
       -0.114004135 -0.111692876 0.00842593 -0.3335036
0001d0 0d 66 4d be ff bf 07 bd 4c 1d 6c 3d 6a e5 72 3e
       -0.2005846 -0.033142086 0.057645127 0.23720327
0001e0 41 2d 80 be dc ba 9a 3d b2 3b 1f 3e 60 7e 49 be
       -0.25034526 0.07555172 0.15550116 -0.19677114
0001f0 84 53 5d 3d 4c c1 3d be d1 bf 8b bc b5 0a 4f be
       0.054034725 -0.18530768 -0.017059239 -0.20218928
000200 c3 b6 c4 bd e6 c9 19 be 6f ed 9e 3e 06 07 b8 3d
       -0.096051715 -0.15018424 0.31040522 0.089857146
000210 af 2e af be fe 3f 37 3d d8 52 49 3e d4 6a 1a be
       -0.34215304 0.044738762 0.19660509 -0.15079814
000220 87 d9 58 be 4a 46 91 bd 6d 11 a0 be 61 be 02 be
       -0.2117673 -0.07093485 -0.31263295 -0.12767936
000230 79 88 4e 3d cc 0c 87 be 91 27 ac be 0a c2 57 be
       0.05042312 -0.2637695 -0.33623937 -0.21070114
000240 f3 cf 83 be ed 6d 30 3b fa 93 04 3e b1 9c 71 3e
       -0.2574459 0.002692099 0.12947074 0.2359493
000250 ac 59 b3 3e 57 3a 3d 3e 35 83 24 be 67 43 43 bd
       0.35029352 0.18479286 -0.16065677 -0.0476717
000260 f3 aa 42 be 5b 07 49 3e bd cd e7 3d 6e 01 38 3e
       -0.19010524 0.19631712 0.11318538 0.17969295
000270 a4 73 7d be f4 1c 8d 3e dd dc a5 be 9d e3 28 3e
       -0.24751145 0.27561152 -0.32395068 0.16493078
000280 30 55 9d be f5 5f 8d 3e 62 14 56 be 9f 56 8a be
       -0.30729055 0.27612272 -0.20906213 -0.27019212
000290 20 d3 41 3e e9 7d a0 3e 6f a8 cf bc e2 69 18 3e
       0.18928194 0.31346062 -0.02534887 0.14884141
0002a0 c0 97 a5 3e 2e e8 93 be 88 72 13 3e 61 b7 97 3d
       0.3234234 -0.28888077 0.14399159 0.074080236
0002b0 84 57 58 be f9 fc 56 3e 62 7e a1 3e 52 4a 8b 3e
       -0.21127135 0.20994939 0.31541735 0.2720514
0002c0 85 a8 85 be 1a 91 9b 3e a3 d8 94 3e 09 5c 09 3e
       -0.26105133 0.3038414 0.2907153 0.13414015
0002d0 0e b9 65 bd 97 49 8b 3e 00 84 71 be 24 d4 62 be
       -0.056084685 0.27204582 -0.2358551 -0.22151238
0002e0 ba 59 43 3e 3b 4f 6a 3e 01 7d 1d bd 35 17 ae 3e
       0.19077197 0.22881787 -0.03844929 0.3400208
0002f0 62 17 44 3e 70 14 31 3e 00 38 8f 3e 07 da af 3e
       0.19149545 0.17292953 0.27972412 0.3434603
000300 a4 d7 7a 3e 7b 5d 94 3e 10 fc fa 3c c7 b2 8d 3e
       0.24496323 0.2897757 0.03063777 0.2767546
000310 04 b5 47 3e 20 0a 32 be eb de 46 3e 97 45 b1 3c
       0.19502646 -0.17386675 0.19420974 0.021639628
000320 64 49 f9 bd 91 3f 82 3e 1b b6 c0 3d 91 0f 95 3e
       -0.12172201 0.25439122 0.09409734 0.2911344
000330 fb b9 a3 3d a0 37 d8 3d 61 e9 59 3e 15 a3 b3 bd
       0.07994457 0.105574846 0.21280433 -0.0877134
000340 1f 8b 56 3e 05 b8 40 be ad 20 78 bd d6 09 15 3d
       0.20951508 -0.18820198 -0.060578037 0.036386333
000350 6d f0 78 3e 0c 8d 1f 3e f5 56 a9 3e fd a0 4c be
       0.24310465 0.15581149 0.33074155 -0.19983287
000360 11 0b d4 bc 4d ea dc bc 0f a5 94 3e bf 06 ac 3e
       -0.025884183 -0.026967192 0.2903218 0.33598897
000370 d5 89 ca 3d 3f 49 92 be bd 33 82 be b2 5c 89 3d
       0.098895706 -0.28571507 -0.25430098 0.06707133
000380 8e bc a1 be 8c b4 02 be 7d e2 89 be 00 cd 3a 3e
       -0.31589168 -0.12764186 -0.2693061 0.18242264
000390 56 1e 3f bd 50 b9 8d be d2 b8 67 3e 88 e5 a2 be
       -0.04665979 -0.27680445 0.22629097 -0.31815743
0003a0 66 35 28 bd e1 57 ad 3e cd dd 2e 3e f9 22 9e be
       -0.04106655 0.3385611 0.17076798 -0.30886057
0003b0 84 ab 2b 3d 11 93 57 bd f2 50 1b 3e 0f 73 a4 3e
       0.041911617 -0.052630488 0.15167597 0.32119033
0003c0 a6 98 98 3e b8 f9 00 bd 42 dc 21 3e f2 cb b0 be
       0.29803962 -0.03148815 0.15806678 -0.34530598
0003d0 76 ad 8e 3e 78 64 40 3e 15 d5 81 be 3c 9e da bd
       0.27866715 0.18788326 -0.2535788 -0.10674712
0003e0 4d 6d 13 be dc fa 59 be 6e b1 0e 3e 9b bc d6 bd
       -0.14397164 -0.21287102 0.13934872 -0.104851924
0003f0 d0 82 12 3e 8e 01 dc bd d9 76 89 3e de e8 14 be
       0.14307714 -0.10742484 0.26848486 -0.14541957

conv1.update_x_lin.bias f4 [64]
000000 a2 6d 16 3e 22 a7 8c be 82 b0 e4 3d 3b 3d af 3e
       0.14690259 -0.27471262 0.11166479 0.34226403
000010 15 b7 63 be d6 c3 16 3d cc 82 c0 3d 08 0e 05 be
       -0.22237809 0.036807857 0.093999475 -0.12993634
000020 96 d6 6b 3e a4 f4 9c 3e 57 b4 ad 3e 76 dd a7 be
       0.23031077 0.30655396 0.3392665 -0.3278615
000030 23 ae 1a 3d 6d da 96 3e 40 49 99 3e a6 81 d4 bd
       0.037763726 0.2946352 0.29938698 -0.10376291
000040 74 b8 68 3e 8d 1d 86 3e 65 17 68 bc 7b 6e 7c 3e
       0.22726613 0.2619442 -0.014165734 0.2465152
000050 29 ea 55 3e 63 d8 67 bd 87 14 1c be b5 c9 31 be
       0.20890106 -0.056602847 -0.15242206 -0.17362101
000060 d0 d0 90 be e6 28 56 be 6f 49 b6 3d f4 8f 08 3e
       -0.2828431 -0.20914039 0.08900725 0.13336164
000070 39 9c cf bd 61 e8 0c bd f2 4b 7d 3e c7 05 3d 3d
       -0.10137219 -0.0344013 0.24736002 0.046148088
000080 4f 4f 66 be 2b 0d 98 3e df 1e 5e 3e 73 f7 13 3d
       -0.22491191 0.29697546 0.21691464 0.036124658
000090 c7 52 35 3e ef b0 99 be 3b df 4f 3e 23 21 b3 3d
       0.17707358 -0.30017802 0.203 0.08746555
0000a0 9d e9 ca bc 75 ff f3 bd 78 18 8e 3e 4b a0 6b 3d
       -0.024769599 -0.11913959 0.27753043 0.057525914
0000b0 75 1a 40 be f7 44 26 3e f8 5d 87 3d 31 07 0c be
       -0.18760093 0.16237246 0.0660972 -0.13674618
0000c0 d1 06 76 3e 7b 90 ae 3e 9d 3a ea bc b0 4e 13 be
       0.24026038 0.34094605 -0.028592402 -0.14385486
0000d0 bc a5 37 be 9a fa 3e be f6 fb 37 3e 55 0c 65 3e
       -0.17934316 -0.18650284 0.17967209 0.22367986
0000e0 6a 17 64 be dd 19 5b 3e 5b e4 97 3c 0c 8d 76 bc
       -0.22274557 0.21396585 0.018541506 -0.015048277
0000f0 06 c5 e9 bd ea e4 a4 be e0 b0 99 be 44 32 7f 3e
       -0.11414532 -0.32205898 -0.30017757 0.24921519

conv1.update_mlp.0.weight f4 [64, 128]
000000 13 36 6d bc 07 dd 7c bb ad 53 5a bd 24 37 84 bc
       -0.014478224 -0.003858389 -0.053302456 -0.016139574
000010 ce 3a 0d bd f6 54 02 3c 94 c9 ac bd 4f 70 0c 3c
       -0.03447991 0.007954827 -0.084368855 0.008571698
000020 3e 39 a0 bd ec a9 80 bd 39 55 f7 ba 44 3f 1a bc
       -0.07823418 -0.0628241 -0.0018870003 -0.009414498
000030 e1 87 cb bc e1 88 52 3d 63 24 d1 3b 81 11 96 3c
       -0.024845066 0.05140007 0.0063825115 0.018318893
000040 89 21 14 3d d8 88 a3 3b c6 55 a0 bd c1 a2 06 bd
       0.036164794 0.0049906783 -0.0782886 -0.032870058
000050 41 52 63 3d 6c ab 4f 3d 2d 7a fa 3c 34 c7 9f 3d
       0.055498365 0.05070059 0.030575836 0.07801667
000060 85 3a 3c bd 58 c4 d7 bc 22 c2 57 bc 1f f3 b1 bc
       -0.045954246 -0.026338741 -0.013168843 -0.021722374
000070 06 22 9c 3d 6a e0 b4 bd e2 30 89 3c 3b ad b1 3d
       0.07623677 -0.08831866 0.016746942 0.08675619
000080 47 3f 49 bd ac dd 8f 3d b2 f5 9b bd 3a ec 74 3c
       -0.04913261 0.070247024 -0.07615222 0.014948899
000090 c5 18 4e bd 4c 16 e5 3c db 64 9e 3c 59 30 9f 3c
       -0.05031659 0.027964734 0.019335201 0.019432234
0000a0 89 40 a4 bc 82 47 e0 bc f9 4b af bd ad 3a 70 3c
       -0.020050304 -0.027377848 -0.085594125 0.014662427
0000b0 20 cc ac 3d 54 36 88 bd 8b 45 0b bd 06 01 be 3c
       0.08437371 -0.06650987 -0.03400187 0.023193847
0000c0 7d 2d 39 3d 7d 7c 03 3d a7 92 6a 3d c6 14 37 3c
       0.045209397 0.032101143 0.057268765 0.011174386
0000d0 3e 24 b2 bc b4 e3 96 bd f7 ed b4 bd 7b 9e 8a bd
       -0.021745797 -0.0736765 -0.08834451 -0.06768509
0000e0 af de 35 3d 86 ad a2 3d 56 4e ac 3d e4 90 87 3d
       0.04440182 0.07943253 0.08413379 0.066194326
0000f0 23 7a 95 3b 66 4b 79 3d 12 a3 09 3d de 21 75 bd
       0.004561679 0.06086292 0.03360278 -0.05984675
000100 27 e3 87 bc 27 00 a8 bd 00 64 9b 3d 6a 61 9d 3c
       -0.016587807 -0.08203154 0.07587433 0.01921149
000110 aa 39 a6 3d ec 5b 2f bc 16 bd 8f 3d b7 74 29 3d
       0.08116467 -0.010703068 0.07018487 0.041371074
000120 86 c0 30 bc 45 91 3f bb 96 02 81 3d 1d 73 3e bc
       -0.010788089 -0.0029230874 0.06299321 -0.011624125
000130 54 c0 8c 3d f6 d7 9e 3c 60 d3 0d bd 00 cf 27 bd
       0.06872621 0.019390088 -0.03462541 -0.040968895
000140 8e 18 30 bd 42 49 68 3d db d4 88 3d 4a 33 2a bd
       -0.042992167 0.05671049 0.06681224 -0.04155282
000150 5d 3a a5 bd 3c 31 4d 3d b2 a5 a4 bc de 34 a6 bd
       -0.080677725 0.05009578 -0.020098541 -0.08115552
000160 e7 03 98 3c 53 17 10 bc 32 6a 82 3d 66 b6 99 3c
       0.018556548 -0.008794623 0.063679114 0.018763732
000170 7d 35 5f bd 3b f1 82 bc 36 fc 81 bd c2 47 29 3d
       -0.05449437 -0.015984168 -0.063469335 0.0413282
000180 f7 ce d3 3c 25 b6 55 3d 78 f8 85 bd 48 85 49 bd
       0.025855524 0.05217566 -0.06541532 -0.049199373
000190 68 50 5c bd ae 19 96 bd 78 d7 a8 bd ab 00 92 bd
       -0.05378762 -0.07329117 -0.082442224 -0.07129034
0001a0 dd 31 7c 3d 7d 71 da bc 52 94 85 bc ee 3e da 3c
       0.06157099 -0.026665444 -0.016306076 0.026641335
0001b0 f3 93 be 3c 50 c4 22 3d a6 9f 7f bd 20 d8 a0 3d
       0.023263907 0.039738 -0.062408112 0.078537226
0001c0 cc 60 e7 bb fd ea 2b bd 49 ad 69 3d 03 81 96 bd
       -0.0070610996 -0.04197215 0.057050023 -0.07348826
0001d0 90 d0 57 bd 08 08 4c 3d 2f 57 0c 3d 3d 60 0f bd
       -0.052689135 0.049812347 0.034262832 -0.03500389
0001e0 64 75 e7 bb 06 3c 84 bc da 36 13 3d 1c 44 91 3c
       -0.0070635546 -0.016141903 0.035940982 0.017732672
0001f0 d0 ab 04 3d ab 84 95 3d 4e fe 78 bd 6b 3e 8b bd
       0.032390416 0.07300695 -0.0607894 -0.06799015
000200 a9 07 a1 bc e5 da 10 bd 7d 48 7f bd b7 a2 a4 3d
       -0.019656973 -0.035365004 -0.06232499 0.08038848
000210 23 d0 96 3d d3 a3 8f 3d 38 8b 55 bd e6 66 fb bb
       0.07363918 0.07013669 -0.052134722 -0.0076721786
000220 09 12 8d bd 46 83 08 bd 79 a2 92 3d 91 7c 51 3c
       -0.068882056 -0.033328317 0.071598954 0.012786047
000230 5e 56 ed 3c ec 9e b8 bd ce 57 10 3d f3 f0 7c 3d
       0.028971847 -0.09014687 0.035239987 0.061753225
000240 da 98 12 bd 8f 8b 8b 3d c6 1c 26 3d 4a 30 89 bd
       -0.0357903 0.06813728 0.040554784 -0.066986635
000250 32 d0 84 bd 81 d1 0c 38 a1 0a ac bd 06 c5 80 bd
       -0.064850226 3.3573717e-05 -0.08400465 -0.06287579
000260 b9 e9 09 3d 21 c0 ed bc 9b 7e 8e bb 1b 04 1f bd
       0.03367016 -0.029022278 -0.0043485886 -0.038822275
000270 f4 8d 70 3d fb 42 93 3d cc 99 7c 3d 5b 4f a0 bd
       0.058729127 0.0719051 0.06167011 -0.07827636
000280 be 01 c0 bc 3d 31 1d 3d e0 8b 5a 3d fd 79 af bc
       -0.02343833 0.038377035 0.05335605 -0.021420473
000290 84 4f 3e 3d db de 96 ba a1 a9 0a 3c d0 09 71 3d
       0.04646255 -0.0011510508 0.008463294 0.05884725
0002a0 31 8d 81 3d 3b 1b 77 bd f8 44 62 bd a9 cb 05 3d
       0.06325758 -0.060328703 -0.055241555 0.03266493
0002b0 ab ec 63 3d d5 29 b1 bc 7b 1b a0 3d f6 78 12 bc
       0.055645626 -0.021626392 0.078177415 -0.008939972
0002c0 1a ec 3e bd f0 cb 32 bc 94 3a 97 bd 05 d6 f7 3c
       -0.046611883 -0.01091288 -0.0738422 0.03025342
0002d0 94 2c a3 bd 79 72 a6 3d 0c d2 86 bd f3 99 6e 3d
       -0.07967487 0.08127303 -0.06583032 0.058252286
0002e0 0d 8f 84 bd d2 5c 6f bc 4f 41 44 bd d7 da 30 3d
       -0.06472597 -0.014609532 -0.047913846 0.043177452
0002f0 b2 7e 4f 3d 0d 0b a4 bd 40 82 9c bd a2 12 18 3c
       0.050657935 -0.0800992 -0.07642031 0.009281786
000300 dc 01 37 bb 22 59 31 b9 86 dd d8 3c 5e ba 99 bc
       -0.0027924692 -0.0001691324 0.026472818 -0.018765625
000310 47 b4 99 3d b6 99 f6 3b 4d c8 26 bd d0 3a f5 3c
       0.07505088 0.007525648 -0.040718365 0.02993527
000320 29 a7 81 bd 59 24 2d bd 20 b9 c9 3c 22 e3 17 bd
       -0.063307114 -0.042270992 0.024624407 -0.037081845
000330 84 d0 ac bd d1 31 35 3d 0d cb b5 3c 66 be d2 3c
       -0.08438209 0.04423696 0.022191549 0.025725555
000340 aa 95 fd 3c 31 9d b2 bd 06 50 21 bd 48 ec 2c bd
       0.030955154 -0.08721388 -0.039382957 -0.042217523
000350 f3 e9 ad 3d 21 f0 e9 bc 3d 0a 74 bd 92 f1 fc bc
       0.08491888 -0.028556885 -0.059580076 -0.030876908
000360 c8 fe 19 3c 57 47 0c 3d b3 2a 83 3d cf ad 82 3d
       0.0093991235 0.034247722 0.064046286 0.063808076
000370 7d 08 0a 3c a2 0c 9e 3d 52 a8 47 3d 30 29 41 3d
       0.008424875 0.07717253 0.048744507 0.04715842
000380 be 38 9b bd d1 29 56 3b 57 c8 99 bc ed 06 ac bd
       -0.07579182 0.0032678733 -0.018772287 -0.083997585
000390 51 e9 36 bd 18 fc 85 3d ca f9 06 3d fd eb aa 3d
       -0.0446561 0.06542224 0.03295306 0.083457924
0003a0 8d 5c 72 3d ca 20 a1 3b 75 6a a2 3d 24 b6 cc 3c
       0.059170295 0.004917239 0.07930461 0.024989195
0003b0 4b 09 35 bc 14 b3 1e bd 97 19 67 3d 92 4d 22 3d
       -0.011049579 -0.038745 0.05642089 0.039624758
0003c0 52 7a 76 3d d8 67 84 bc 2c e7 aa bd f7 73 80 3c
       0.060175247 -0.016162798 -0.08344874 0.015680296
0003d0 08 08 0f 3c 46 30 6e bd 6e 8b af 3c d4 aa 4d bc
       0.008729942 -0.058151506 0.02142879 -0.012552936
0003e0 30 69 95 3d 17 4c 88 3b fc bd 37 bd d4 87 8f 3d
       0.072954535 0.0041594612 -0.044858918 0.07008329
0003f0 56 51 f2 3b cf 53 84 bc 82 ea 2c 3d 9e 83 ab 3d
       0.00739495 -0.016153244 0.04221583 0.08374713

conv1.update_mlp.0.bias f4 [64]
000000 30 fb 9d 3c e6 db 4f bd 83 21 b8 3b c6 65 1a bd
       0.019284815 -0.05074682 0.0056192293 -0.037694715
000010 6f 2c 36 3d 8e 2a 3a bd 94 38 9e 3d 69 e3 10 3d
       0.04447597 -0.04545074 0.07725635 0.035373125
000020 51 ed b5 bd e5 36 9b bc 52 5a 03 bc 9c de df bc
       -0.08883155 -0.018947074 -0.0080171395 -0.027327828
000030 cd 9e 50 bb 9a b4 41 bd e5 cd 7f 3d b0 f5 24 3d
       -0.0031832934 -0.047291376 0.062452216 0.04027337
000040 c5 10 4c bc 97 95 13 bd b0 53 89 bd e0 75 55 bd
       -0.01245517 -0.036031332 -0.06705415 -0.052114367
000050 4e 8f 38 bd 74 a3 b1 3d 97 28 27 38 ae 63 52 bd
       -0.04505854 0.08673754 3.9853705e-05 -0.051364593
000060 3a 94 fb bb 1e 02 29 bb a2 f3 da 3c 1d aa 01 3d
       -0.007677582 -0.0025788615 0.026727501 0.031656373
000070 ee 0d 63 3d 7c 50 34 bd 0e 69 a4 bc 90 59 9a bd
       0.055433206 -0.04402207 -0.020069625 -0.07536614
000080 37 b8 0a bd e6 4b a2 bd 35 42 0f bc ec 85 4d bd
       -0.033867087 -0.07924633 -0.008743812 -0.050176546
000090 9a ad 03 bd bd 13 ad 3d fa e1 a3 3d 15 38 33 3c
       -0.03214798 0.084510304 0.08002086 0.010938664
0000a0 24 bb 16 3d cf c7 83 3d 29 99 9e 3c 3e 3a 82 3c
       0.036799565 0.06434595 0.019360142 0.015896913
0000b0 e8 ac 9d bb 7b c5 8d bd 2a 52 89 3d b7 fc 7e bd
       -0.004811872 -0.06922432 0.06705125 -0.062252726
0000c0 61 93 9d bc f1 a1 9c bd 29 ae 2f bd 44 06 ad 3d
       -0.019235315 -0.07648075 -0.0428907 0.08448461
0000d0 4e d6 16 bc 71 b2 13 3d 5b 40 8b 3c 5b 68 8e 3d
       -0.009206368 0.036058847 0.01699846 0.06953498
0000e0 9b a4 c3 3c c3 be 4c 3b ea 09 37 bd 00 5b 71 3c
       0.023882201 0.0031241633 -0.04468719 0.014731169
0000f0 ad 42 9d 3c 76 44 7b bd 8f 52 7f bd 0a 5a 30 bd
       0.019196833 -0.061344586 -0.062334593 -0.043054618

conv1.gate.0.weight f4 [64, 128]
000000 0e f8 9f 3d 1a b4 06 3d c6 57 52 3d 43 fc 66 3d
       0.078109846 0.032886602 0.05135324 0.05639292
000010 b3 c5 25 bb 36 6f 7b bd 00 31 a7 3d de 21 8a 3c
       -0.002529484 -0.061385356 0.08163643 0.016861852
000020 a5 e7 f0 bc 1d 64 08 3d 2b a0 72 bd d9 89 b1 3b
       -0.029407332 0.0332986 -0.05923478 0.005418044
000030 e6 bd a3 3d 7e 3f de 3c 43 3f ae bd 0d e2 a1 3d
       0.07995205 0.027129885 -0.0850816 0.07904444
000040 fe b6 8a 3c 57 10 b0 bc 8e 09 93 3d 1e fe 23 3d
       0.01693296 -0.021492166 0.07179557 0.040037267
000050 17 45 58 3d 8e 17 29 3d 3a c2 42 bd e8 4e 87 bd
       0.052800264 0.04128223 -0.04754851 -0.06606847
000060 61 c6 7a 3d 56 1b 03 bc 9b 19 8f 3d e0 be 2e 3d
       0.061224345 -0.008002123 0.06987306 0.0426625
000070 6a 04 aa bd 83 0e 3c 3d a5 be 2b 3d 88 73 b0 bd
       -0.08301623 0.045912277 0.04192986 -0.08615786
000080 34 ad 74 3b 65 2a 9d bd f3 a6 3a 3d 42 d4 39 3d
       0.0037334682 -0.07674102 0.04556937 0.04536844
000090 3e ea d5 3c 2e 8f 6b 3d 9a 0d 3d bd 1f ac a3 bb
       0.026112672 0.057509594 -0.04615555 -0.0049948837
0000a0 f9 4c c3 bc b3 ea 84 3d d3 8a 79 3d f6 eb ec bc
       -0.023840414 0.06490078 0.06092341 -0.028921109
0000b0 c1 d5 9f bd ef db a5 bb bf e3 8f 3d bb cb 8b bc
       -0.07804442 -0.0050616185 0.07025861 -0.01706492
0000c0 bf 68 fb 3c fa cc 87 bd 5d a9 68 bd 29 ed 92 bd
       0.030689595 -0.06630893 -0.056802142 -0.07174141
0000d0 88 34 98 bd ce 58 1c bd 92 ba 11 bd 45 dc 13 3d
       -0.074318945 -0.03817063 -0.035578318 0.036098737
0000e0 f6 1f 9a 3d a2 b1 1c 3c ed f0 19 3d bd 56 6b bd
       0.07525627 0.009563835 0.03758328 -0.057455767
0000f0 22 d9 25 bd 38 ae ae bd f8 ee a4 3d dc 82 46 3c
       -0.040490277 -0.08529323 0.08053392 0.01211616
000100 cf 25 ef bc e1 c6 ab bd f5 ab 7d 3c 34 c5 b6 bd
       -0.029192833 -0.083875425 0.015482892 -0.08924332
000110 7d c5 6e 3d 21 36 ac bd db fd 9a 3c 9d b0 4b 3d
       0.05829381 -0.08408762 0.018919876 0.04972898
000120 1f be 9c bd 22 f2 84 3d d2 a6 b0 3d 99 fb 7c 3d
       -0.0765345 0.06491496 0.086255684 0.06176338
000130 a9 5e a4 3d df 64 29 bd 31 64 86 bc d1 6b a2 3d
       0.080258675 -0.041355964 -0.016405197 0.079307206
000140 4a f4 1f 3d b6 bc 75 bd 90 22 b1 3d 47 a8 ae bc
       0.03905133 -0.059994422 0.086491704 -0.021320475
000150 ec b5 0e bd 0d 69 16 3c 18 34 aa 3d 1c 8a 3c bd
       -0.034841463 0.0091803195 0.08310717 -0.04603015
000160 97 95 17 3b fe 5c 66 bc a9 62 ff bc 99 f7 26 3d
       0.0023129934 -0.014060257 -0.031174975 0.04076347
000170 90 2c a5 3a 18 6f 97 bd 15 14 29 bb e7 b8 64 3d
       0.0012601782 -0.07394236 -0.0025799323 0.0558404
000180 73 a9 2b bd a7 da 9a 3d 23 22 95 bd 01 37 f5 3c
       -0.041909646 0.07561236 -0.07281902 0.029933454
000190 4b 6a 4d 3d 05 77 dc 3c c5 9c f3 3c 62 e3 4c 3c
       0.050150197 0.026912222 0.02973784 0.012505384
0001a0 88 e3 8c bc 90 d4 60 3d 8a 73 96 bc 44 54 90 3d
       -0.01719834 0.054890215 -0.01836564 0.070473224
0001b0 5c f7 a5 3d e9 7d a6 bd 82 cf 88 3d b2 2c b4 3c
       0.08103821 -0.08129484 0.06680204 0.021993969
0001c0 c4 3c 86 bd 4b bb 5c bd c0 1a 53 bc c4 95 97 3d
       -0.06554559 -0.053889554 -0.012884796 0.074016124
0001d0 80 b7 5a 3d e6 89 e1 bc d3 21 58 bd 2d 19 76 bd
       0.053397655 -0.027531575 -0.052766632 -0.060082603
0001e0 ea 46 46 bd 71 61 03 bb 83 f6 a6 bd 89 56 af bd
       -0.048407473 -0.0020047093 -0.08152487 -0.08561427
0001f0 dd 51 7d bd a9 0d a7 3c 93 83 00 3d 3a e3 b3 3c
       -0.06184565 0.020392256 0.03137548 0.021958936
000200 53 9f 92 3d f2 d8 e6 3c 59 c9 15 bd 32 0f 17 3d
       0.07159295 0.02817962 -0.036568973 0.036879726
000210 9f e3 1f bd 98 54 a5 3d 2b 6e f6 bc 7c 45 63 bd
       -0.039035436 0.080727756 -0.030081829 -0.055486187
000220 5f 5a a3 bc 8a da 41 bd 6c c2 35 bc 50 7d 86 bc
       -0.019940553 -0.047327556 -0.011093717 -0.016417176
000230 33 72 42 3c 6a 8b 34 bc 27 e0 73 bd 2e c3 ab bd
       0.0118680475 -0.011019567 -0.05953994 -0.08386837
000240 51 81 80 bd d1 ed ac bd 3b a6 b9 bd 4f 94 ab 3d
       -0.06274665 -0.084437974 -0.09064909 0.08377897
000250 4d 19 4e 3d bb e4 2b 3d 96 92 61 3d 0d fa ed 3c
       0.050317097 0.04196618 0.055071436 0.029049898
000260 f3 9b db bc 19 a3 02 bc 68 0a 0d bd df 43 21 3d
       -0.02680776 -0.007973456 -0.034433752 0.039371368
000270 a7 27 ab 3c 52 bf 92 bd 08 d3 76 3c 6a 77 87 bd
       0.020892931 -0.07165398 0.015064962 -0.06614573
000280 fa 87 8c 3d 5e aa c7 3b 73 1d 76 bb ab 95 50 bd
       0.06861873 0.0060933074 -0.0037554174 -0.050923984
000290 d9 2e 69 3c 85 bb 1c 3c 69 b3 a8 3c 37 c8 6a bd
       0.014232361 0.0095661925 0.020593362 -0.057319846
0002a0 f2 a1 16 bd 1c 2e 71 bd 93 5a 5b bd 01 2d 4f bd
       -0.036775537 -0.058881864 -0.053553175 -0.05058003
0002b0 da a4 8c bd 3c bd b5 3d 26 ef b0 bd 81 2c cd bc
       -0.068673804 0.08873984 -0.08639364 -0.025045635
0002c0 9a e7 a2 3b 1e 31 0c bd 12 09 d7 bc fd 3b 35 3d
       0.0049714567 -0.03422653 -0.026249442 0.044246662
0002d0 c5 ec b0 bc 77 4f 03 bc 84 b0 9b 3d 4c 0d 0b bd
       -0.021597276 -0.008014551 0.07602027 -0.033948228
0002e0 84 fa c1 bb 0a 8f 6a 3d a3 2e ba bc 0a 73 8e bd
       -0.0059197564 0.05726532 -0.022727316 -0.06955536
0002f0 b5 6c 90 3d 67 59 97 bd a9 04 ad bd a8 71 46 bd
       0.07051984 -0.07390099 -0.084481545 -0.048448235
000300 19 f4 84 3c a9 8d 9e 3d 28 8e 8a bd 1b 77 1f bd
       0.016229676 0.07741863 -0.067653954 -0.038931947
000310 b8 90 ad 3d 90 66 8e 3d cf 1a 09 3d 71 55 8f bd
       0.084748685 0.06953156 0.033472832 -0.069987185
000320 31 73 50 3d 2d 0f b8 bb ad a5 8e bd db cd 8d 3d
       0.050891105 -0.0056170435 -0.06965194 0.069240294
000330 c0 9c 77 bd 28 01 6c 3c 7f 54 41 bd cc 75 99 3d
       -0.060452223 0.014404573 -0.047199722 0.07493171
000340 85 b5 a3 3b 62 ef ae bc 2d ef 48 3d 6a a5 b0 3d
       0.004996004 -0.021354381 0.04905622 0.086253
000350 87 1a 0a ba 3a 1e 8f 3d 2f 0a db bc cd 97 20 bd
       -0.0005268235 0.06988187 -0.026738254 -0.03920727
000360 bd d0 30 bd 33 7c a2 bd 32 c0 ab 3d 43 4f b3 3c
       -0.04316782 -0.07933845 0.08386268 0.02188838
000370 e6 74 68 bd 11 84 a5 bd e0 3d 69 3d 1f 06 8a 3b
       -0.056752108 -0.0808183 0.056943774 0.0042121555
000380 65 73 77 bd 0d b2 52 bc 2a 9e 03 bd 0b ac 3c 3c
       -0.060412783 -0.012859833 -0.03213326 0.011515628
000390 bf 33 01 bd 64 2f 1b bd 8f e4 3b bd 11 5d 0f bd
       -0.03154349 -0.037886992 -0.045872267 -0.035000864
0003a0 eb b7 f7 39 cd 03 3a 3d b8 ac a8 3c 4e a6 74 3d
       0.0004724854 0.04541378 0.020590171 0.059728913
0003b0 ad 14 cc bc fd 41 cb bc 2d 90 45 bd f7 0c 9c bd
       -0.024912203 -0.02481174 -0.0482332 -0.0761966
0003c0 6b b4 4b bd a9 95 5c bc e0 f4 a6 3d a4 83 b1 bd
       -0.049732607 -0.013463416 0.08152175 -0.086676866
0003d0 a9 bd 86 3d 93 bb 4f 3d f3 34 34 3d b8 d7 4e 3d
       0.065791436 0.050715994 0.04399581 0.050498694
0003e0 64 c3 4c 3d d0 89 9c 3d ee 65 18 3d 50 99 60 bc
       0.049991027 0.07643473 0.037206583 -0.013708428
0003f0 33 32 11 3d ea 40 7e ba 24 47 2f bd fc 4d 19 3d
       0.035448264 -0.0009699004 -0.042792454 0.037427887

conv1.gate.0.bias f4 [64]
000000 73 e2 6f 3d ff 68 61 3d eb 83 34 bd 7b b9 e2 3c
       0.05856557 0.055031773 -0.04407112 0.027676335
000010 a3 84 95 bd de 98 9e bd ab 62 7c bd 71 74 6e bc
       -0.07300689 -0.07744001 -0.061617535 -0.014554129
000020 46 a4 b5 bd 8b 9f 8b 3d 0b e7 9d 3d d3 f8 7d bd
       -0.08869223 0.0681754 0.077100836 -0.062004875
000030 cd 57 bc bd 5b b9 3d bc 01 19 89 3d d3 02 91 3c
       -0.09196434 -0.011579837 0.06694222 0.017701542
000040 a0 9c 08 3c d9 4f b1 3d be 39 73 3d 7b 98 2c 3d
       0.008338124 0.08657808 0.05938124 0.042137604
000050 c0 6c 2a bd f8 7a c8 bc cf 7b 43 bc a1 b1 db bc
       -0.04160762 -0.024472699 -0.011931374 -0.026818099
000060 fc 27 bc 3c 64 94 5c 3d 5d 95 1d bd d4 c6 a6 bd
       0.022968285 0.053852454 -0.038472522 -0.08143392
000070 d0 5a a0 bd 5a 8b a3 3c e2 72 8a bd 22 71 34 3d
       -0.07829821 0.019963909 -0.067601934 0.044053204
000080 75 e5 e9 3c b7 24 b8 3c bc 32 0a bd e0 90 48 3d
       0.028551796 0.022478445 -0.03373979 0.04896629
000090 d2 a3 74 3d 7d 91 f2 3c 16 01 cc 3b 76 d9 24 3d
       0.059726544 0.02961039 0.0062257154 0.04024645
0000a0 0e f8 4c 3b 29 99 ca 3c 2d 9d 42 3d dd db a7 3d
       0.0031275782 0.024731236 0.047513176 0.081962325
0000b0 f1 94 5a bc 34 7b 40 3d 10 c1 89 3d e4 43 8f bd
       -0.013341174 0.046992496 0.06726277 -0.06995371
0000c0 72 d2 d3 bb bb 9b 9e bd c3 dd 96 bd e2 b6 80 3d
       -0.006464296 -0.07744547 -0.073665164 0.06284882
0000d0 22 2f 8f bd 31 44 a7 3d 46 ab 97 3d 20 44 62 bd
       -0.06991412 0.08167303 0.07405715 -0.05524075
0000e0 f3 11 96 bd f0 7b b8 bc bf 5f a7 bd 79 54 39 3d
       -0.07327642 -0.022520036 -0.08172559 0.045246575
0000f0 8c 4f 6d bc a6 10 84 3c 1a 36 82 3b 91 50 4b bc
       -0.0144842975 0.01612122 0.0039737346 -0.012409345
